qi/best.pth (torch, 29624 bytes, 4 tensors)

u_weight.weight f4 [172, 30]
0	0xbb93687e	-0.0044985404
1	0x3c5e7b18	0.0135791525
2	0x3a8ff04c	0.0010981648
3	0xbbb26163	-0.0054437383
4	0x3a381f5b	0.00070237153
5	0xb9f37d67	-0.00046442004
6	0xbbe0b470	-0.0068574473
7	0xbb7cc81e	-0.0038571428
8	0x3bca5e68	0.006175805
9	0x3c499774	0.012304176
10	0xbc01a480	-0.007912755
11	0x3b133269	0.0022460467
12	0xbc731680	-0.014836907
13	0xbc36e9a6	-0.011164105
14	0xbae86c5e	-0.0017732491
15	0x3b04caf3	0.0020262569
16	0xbbbf0122	-0.0058289925
17	0x3c373191	0.011181251
18	0x3b42a8b4	0.0029702606
19	0xbbf1a1af	-0.0073740105
20	0x3a8cdd0c	0.001074703
21	0x3c1dc915	0.009630461
22	0xbc8c395c	-0.017117195
23	0x3c838495	0.016054431
24	0x3b94ef27	0.0045451107
25	0x3c00d7ac	0.00786392
26	0xbb0a8ee5	-0.00211423
27	0xbb02f83f	-0.0019984392
28	0xbb6f32e9	-0.003649885
29	0x3b4370ee	0.002982195
30	0xbdd5704a	-0.10421808
31	0x3dcf8268	0.10132295
32	0xbd0a0136	-0.03369256
33	0x3d3b0686	0.045660518
34	0x3d050d62	0.032483466
35	0x3c61f632	0.013791608
36	0xbd07fd2a	-0.03320042
37	0x3da7836d	0.08179364
38	0x3d717899	0.0589529
39	0xbda08dde	-0.07839559
40	0x3dac6d21	0.08419252
41	0x3d0ccdc8	0.034375936
42	0xbb028a21	-0.0019918757
43	0xbdcccad7	-0.09999626
44	0xbdd06fd9	-0.10177583
45	0x3da5bb38	0.0809235
46	0xbdaa64ff	-0.08320045
47	0xbdbb0263	-0.091313146
48	0xbdcee9bd	-0.10103176
49	0xbd8deef9	-0.06930346
50	0xbdc133fe	-0.09433745
51	0xbcc8dd2c	-0.024519525
52	0x3db73ebf	0.08947515
53	0xbcd75fb2	-0.026290748
54	0x3cf159f8	0.029461846
55	0x3d88f604	0.06687549
56	0x3caa2172	0.020767901
57	0x3cea0f84	0.028571852
58	0x3d9e4248	0.07727486
59	0xbcbefe34	-0.023314573
60	0x3d8bdf70	0.06829727
61	0x3ddb83d3	0.10718503
62	0xbd86e77f	-0.06587123
63	0x3da77ad6	0.08177726
64	0xbdb2e1e6	-0.08734493
65	0xbcf35120	-0.02970177
66	0x3d3c1b77	0.04592463
67	0x394ecb4d	0.00019721426
68	0xbdbd1a0b	-0.09233483
69	0x3ce85711	0.028361829
70	0xbc3420c1	-0.010994137
71	0xbd04b8be	-0.032402746
72	0xbc88e957	-0.016712828
73	0x3d9e5db3	0.077327155
74	0xbd9fc4cc	-0.07801208
75	0x3db44214	0.08801666
76	0x3d6b622d	0.057466675
77	0x3d787c99	0.0606657
78	0x3cfb49db	0.030674865
79	0x3d4a5959	0.049401615
80	0xbdc8398a	-0.097766
81	0x3d5fed97	0.054669943
82	0x3d09c962	0.03363932
83	0x3d3b36e2	0.045706637
84	0x3c6547c6	0.013994163
85	0x3beb9750	0.0071896687
86	0xbd769916	-0.060204588
87	0x3dd4b0ef	0.1038531
88	0x3d8aef09	0.067838736
89	0x3c3b9fc9	0.01145167
90	0xba648b42	-0.0008718261
91	0xbc9e8fe5	-0.019355724
92	0x3d5156dd	0.05110823
93	0xbcec5055	-0.028846899
94	0xbcf74485	-0.03018404
95	0x3c924eb5	0.017859796
96	0xbc7db7d2	-0.015485721
97	0x3d28b8c8	0.041191846
98	0x3d6abe2d	0.057310272
99	0x3bf976f0	0.0076130554
100	0xbc25122a	-0.010075131
101	0xbc6a781c	-0.014310863
102	0xbd2d11e0	-0.042253375
103	0xbc69f86e	-0.014280422
104	0x3d1284ac	0.035771057
105	0x3c4a1497	0.012334011
106	0xbcf6e06a	-0.030136306
107	0xbcbc7f10	-0.023009807
108	0x3d1920a2	0.037384637
109	0x3d4e5fc6	0.050384305
110	0xbcc58814	-0.024112739
111	0xbcf599d9	-0.029980587
112	0x3cf25565	0.029581735
113	0x3cfac4d9	0.030611442
114	0xbbdd711e	-0.0067578694
115	0xbb75aa52	-0.0037485552
116	0x3d10f06b	0.03538553
117	0xbd34d8c6	-0.044152044
118	0x3c4fc0c9	0.012680241
119	0xbc31a7d6	-0.010843238
120	0x3cbde9d1	0.023182781
121	0xbc53d5fe	-0.012929438
122	0x3c9995a1	0.018748106
123	0x3b68e013	0.003553395
124	0x3cdeffef	0.027221648
125	0xbc9eb771	-0.019374581
126	0xbcaf4b6c	-0.021398269
127	0x3c83f44b	0.016107699
128	0x3c99bbf4	0.01876638
129	0xbc9209a8	-0.01782687
130	0xbcadcf88	-0.021217123
131	0x3ce6b4f7	0.028162463
132	0x3ccd07d4	0.025028147
133	0x3cf3db76	0.029767733
134	0x3bb68b4a	0.005570804
135	0x3ce50cde	0.027960237
136	0xbc55766b	-0.013028721
137	0xbb0d7e2f	-0.0021590104
138	0xbb78c691	-0.0037960152
139	0xbcd9a9bb	-0.026570192
140	0xbb2e48e6	-0.0026593744
141	0xbcdb9816	-0.026805919
142	0xbb6da275	-0.0036260162
143	0xbcb121b0	-0.021622509
144	0x3c2f7567	0.010709143
145	0x3c495dba	0.012290413
146	0xbcf0f0fb	-0.029411783
147	0xbc95663f	-0.018237231
148	0x3cd555ac	0.026041828
149	0xbb4882c6	-0.0030595525
150	0x3da4778e	0.08030616
151	0xbd07a628	-0.033117443
152	0xbd7ba1ca	-0.06143359
153	0xbd3ec86d	-0.04657786
154	0xbd204785	-0.039130706
155	0xbd9c86fe	-0.07642935
156	0xbb14384f	-0.002261657
157	0xbd021d1d	-0.031766046
158	0xbd01e341	-0.031710867
159	0xbc55f0dd	-0.013057915
160	0xbd7d6993	-0.06186826
161	0xbd4f125a	-0.05055461
162	0xbda076d2	-0.07835163
163	0xbd577db8	-0.05261013
164	0xbb88b749	-0.00417224
165	0xbd92017c	-0.07129189
166	0x3c9bd6ae	0.019023266
167	0x3d9f9ac9	0.07793195
168	0xbd94d6d4	-0.07267538
169	0xbd879ba3	-0.06621482
170	0xbd922d27	-0.071375184
171	0x3b9ab0e0	0.004720792
172	0x3d86fd39	0.06591267
173	0xbdb93381	-0.09043027
174	0x3db350cb	0.087556444
175	0xbd634eaf	-0.05549496
176	0x3d88e1b8	0.066836774
177	0xbc5c13af	-0.013432427
178	0x3c775665	0.015096282
179	0xbd9af793	-0.07566752
180	0x3d152c90	0.03641945
181	0x3d4d61d0	0.05014211
182	0xbd2cf019	-0.042221162
183	0xbd07ede2	-0.033185847
184	0x3cfc1e24	0.03077609
185	0x3d6ae52e	0.05734747
186	0x3d875802	0.06608583
187	0x3d55a152	0.0521558
188	0x3d47fb35	0.048823554
189	0x3d45f87d	0.04833268
190	0x3d48572a	0.04891125
191	0xbd160e29	-0.036634598
192	0x3d736a29	0.059427414
193	0x3d40f773	0.047110986
194	0x3d5c16b3	0.053732585
195	0xbd08172a	-0.033225216
196	0x3d06751a	0.03282652
197	0x3d827880	0.0637064
198	0xbd64e5f8	-0.055883378
199	0x3d6ee5ad	0.058324505
200	0x3d2a5073	0.04158063
201	0xbd72cfcf	-0.059280213
202	0xbd4c4c6c	-0.04987757
203	0x3c872a91	0.01649979
204	0xbcf6e84f	-0.03014007
205	0xbd66301e	-0.056198232
206	0xbd4fb032	-0.050705142
207	0xbd3a7240	-0.045519114
208	0xbd35cf12	-0.04438693
209	0xbd463833	-0.04839344
210	0xbd9d7305	-0.07687954
211	0x3d73cb16	0.05951985
212	0xbbea73c9	-0.007154916
213	0xbd964305	-0.07337002
214	0x3d9abe9f	0.07555889
215	0x3d7111ff	0.058855053
216	0x3d719a33	0.058984946
217	0xbd8c86e8	-0.06861669
218	0x3d9fcd56	0.078028366
219	0x3d84cd10	0.06484425
220	0x3d83d218	0.064365566
221	0x3d698a4c	0.057016656
222	0x3d7e52d0	0.062090695
223	0xbd853fa9	-0.06506283
224	0xbd6f04a0	-0.05835402
225	0x3d8bf6bc	0.0683417
226	0xbd8044d8	-0.06263131
227	0xbd6bb472	-0.057545133
228	0xbd339630	-0.0438444
229	0x3d41bf56	0.047301613
230	0xbd87967b	-0.06620499
231	0xbd1c5eee	-0.03817647
232	0xbd85111e	-0.064974055
233	0xbdad94c3	-0.0847564
234	0xbd3e396b	-0.046441477
235	0x3d5754e4	0.052571192
236	0xbcbf18c1	-0.023327233
237	0xbd07108c	-0.032974765
238	0xbd1230af	-0.03569096
239	0xbd8dec51	-0.069298394
240	0xbda17c44	-0.0788503
241	0xbd8b2822	-0.06794764
242	0xbd8870fb	-0.06662174
243	0x39f99d5d	0.00047610226
244	0xbc2a14c9	-0.010380932
245	0x3d871cce	0.06597291
246	0xbd73808f	-0.059448775
247	0xbd351ad3	-0.044215035
248	0x3d1335a2	0.03593982
249	0x3d90f9d0	0.07078898
250	0xbd93f244	-0.07223943
251	0xbc39f609	-0.011350163
252	0x3d509cda	0.050930835
253	0xbcadb091	-0.021202357
254	0x3d5064dd	0.05087744
255	0xbd8b2a0f	-0.067951314

i_weight.weight f4 [51, 30]
0	0xbc31d51a	-0.01085403
1	0xbc4d13f4	-0.012516964
2	0x39d75664	0.00041072362
3	0x3adecbf0	0.0016998034
4	0xbbff8144	-0.007797392
5	0xbaea02d4	-0.0017853626
6	0x3b40c9cf	0.0029417162
7	0x3b91a64f	0.0044448744
8	0xbb883cd7	-0.0041576433
9	0x3b35be79	0.0027731939
10	0x3c237bfc	0.009978291
11	0x3b13e5d3	0.0022567406
12	0x3b854c4a	0.0040679323
13	0xbb23cd11	-0.0024994055
14	0x3ca132bc	0.019677512
15	0x3c3a2ff5	0.011363973
16	0xbc968388	-0.018373266
17	0xbc02fe98	-0.00799527
18	0xbb6dbdab	-0.003627638
19	0xbc866942	-0.016407613
20	0xbc6e1c7c	-0.014533158
21	0x3a7cae0e	0.0009638973
22	0xbc49c31a	-0.012314582
23	0x3b32173f	0.00271745
24	0xbb1d0322	-0.0023958166
25	0xbb74b0c6	-0.003733681
26	0x3c8ab842	0.016933564
27	0xbb1422df	-0.0022603793
28	0x3b06036a	0.0020448812
29	0xbb9c726a	-0.0047743814
30	0xbcbbcddd	-0.022925312
31	0xbce3ed46	-0.027823102
32	0x3cac9cdb	0.021070888
33	0x3b8e2c3f	0.0043387706
34	0xbc943b8d	-0.018094802
35	0xbcfd1a6a	-0.030896384
36	0xbd09725c	-0.033556327
37	0x3cbd5232	0.023110483
38	0x3d1f6357	0.038913097
39	0xbc6e5087	-0.014545566
40	0xbc095e3d	-0.008384285
41	0x3bc6844d	0.006058252
42	0xbcc7f724	-0.024409838
43	0xbad9be06	-0.0016612418
44	0xbc8a9adf	-0.016919551
45	0x3c76a3ff	0.015053748
46	0x3b64118c	0.0034800498
47	0xbd264eb0	-0.040602386
48	0x3cbcf5da	0.02306645
49	0xbd0cc794	-0.03437002
50	0x3b8f880f	0.004380233
51	0x3c610438	0.013733916
52	0xbca6593d	-0.020306224
53	0xbc100ef0	-0.008792624
54	0xbc062d4a	-0.008189509
55	0xba5f239c	-0.0008512081
56	0xbc918d4c	-0.01776757
57	0x3c6a013b	0.01428252
58	0xbccd51fe	-0.025063511
59	0xbd008ec7	-0.031386163
60	0x3d45d46b	0.04829828
61	0xbd959f25	-0.07305745
62	0xbd700ddb	-0.058606964
63	0x3c9139b7	0.017727716
64	0x3dd13c7d	0.10216615
65	0x3dd6c699	0.10487098
66	0x3d7c791a	0.06163893
67	0xbd2f4bd4	-0.042796925
68	0x3c1d9867	0.009618855
69	0xbdb7ac27	-0.08968382
70	0x3d683aa1	0.056696538
71	0xbd9393fb	-0.072059594
72	0x3bd0da00	0.006373644
73	0xbd2406ab	-0.04004542
74	0x3ce5ebba	0.028066505
75	0xbdc5412d	-0.09631572
76	0x3d493a97	0.04912814
77	0xbdd8767b	-0.10569473
78	0xbd900811	-0.070327885
79	0xbde21022	-0.11038233
80	0x3da739c7	0.08165317
81	0xbdce8290	-0.100834966
82	0xbda2d560	-0.07950854
83	0x3b786762	0.0037903418
84	0xbcc0b094	-0.023521699
85	0xbdbf4822	-0.0933993
86	0xbd5ebb09	-0.05437759
87	0xbd8d6488	-0.069039404
88	0xbdc5525c	-0.096348494
89	0xbdcb1f5e	-0.09918092
90	0x3dce74fb	0.10080906
91	0xbdecf46a	-0.11570056
92	0x3da8cad0	0.082418084
93	0x3de7bb6c	0.11315045
94	0x3db65513	0.08902945
95	0xbdc00c55	-0.09377352
96	0xbde490b4	-0.111604124
97	0xbdf7771d	-0.12083266
98	0xbde21a41	-0.11040164
99	0x3d6a5e8d	0.057219077
100	0x3dc936eb	0.09824928
101	0x3d8fbd89	0.07018573
102	0xbdda7a9f	-0.10667919
103	0xbd8ba270	-0.06818092
104	0x3da637cd	0.08116112
105	0xbde1b94b	-0.1102167
106	0xbdc889e1	-0.09791923
107	0x3de1e26b	0.11029514
108	0xbda298ea	-0.07939322
109	0xbd3466a8	-0.044043213
110	0xbd4ff181	-0.050767425
111	0x3dc6633b	0.096868955
112	0xbdc14f29	-0.09438927
113	0x3decf836	0.1157078
114	0x3dde5f6c	0.10858044
115	0x3dca4f90	0.098784566
116	0x3dce8d1d	0.10085509
117	0x3ddc2f0e	0.107511625
118	0x3ded2974	0.11580172
119	0x3dffb68a	0.124859884
120	0xbd0ffad3	-0.035151314
121	0x3c4f5d17	0.012656472
122	0x3d03fa59	0.032221172
123	0x3c86125a	0.016366173
124	0x3c0c59bf	0.008566319
125	0xbcba930a	-0.022775192
126	0xbbe85bc9	-0.00709102
127	0xbc85c330	-0.016328424
128	0x3cb9cfc9	0.022682087
129	0x3c4c1d94	0.012458224
130	0x3c6133af	0.0137452325
131	0x3bfffafe	0.007811903
132	0xbc4058f8	-0.011739962
133	0x3c4e8c80	0.01260674
134	0x3c069e89	0.008216509
135	0xbceb9cf5	-0.028761366
136	0x3cf53e75	0.029937008
137	0xbcda623d	-0.026658172
138	0x3d24260b	0.040075343
139	0xbca558c3	-0.020183926
140	0x3d33da9c	0.043909654
141	0x3af307f4	0.0018541799
142	0xbd0a4680	-0.03375864
143	0xb9ef4548	-0.0004563725
144	0x3d0adc05	0.033901233
145	0x3d354b3b	0.0442612
146	0xbcce4658	-0.025180027
147	0xbd27a969	-0.040933046
148	0x3bd5e36f	0.0065273563
149	0xbd1c1e6b	-0.038114946
150	0xbc11e830	-0.0089054555
151	0x3c1ebf77	0.009689203
152	0x3d8e0b39	0.06935734
153	0x3d74fa5c	0.059809074
154	0x3c828264	0.015931316
155	0xbbc6fbb2	-0.006072485
156	0x3d2ecce1	0.042675857
157	0x3cdf45b8	0.027254924
158	0x3be4447f	0.006966173
159	0xbd44917b	-0.047990303
160	0x3d53d365	0.051715273
161	0xbd6c56dd	-0.057700027
162	0x3c1771e7	0.009243465
163	0x3d802341	0.06256724
164	0x3d0da77e	0.03458356
165	0xbd0ba45b	-0.03409229
166	0x3d585c90	0.05282265
167	0xbc47909a	-0.012180472
168	0xbcf24840	-0.029575467
169	0xbd8ad887	-0.067795806
170	0x3d5b9e39	0.05361769
171	0x3d823d53	0.06359353
172	0xbd3fb795	-0.046805937
173	0x3bef1f4d	0.0072974325
174	0x3cb324ef	0.021868197
175	0x3d6773d6	0.056506954
176	0xbd440bc4	-0.047862783
177	0x3cd1d112	0.025612388
178	0xbc51a323	-0.0127952425
179	0xbd0c3bcd	-0.034236718
180	0xbc37d517	-0.011220238
181	0x3d9ae0f1	0.075624354
182	0x3d9e48d8	0.077287376
183	0x3d8662cb	0.06561812
184	0xbd8393f9	-0.06424708
185	0x3cfe9e55	0.031081358
186	0x3d438b2a	0.04774014
187	0xbd03a0f0	-0.032135904
188	0xbd7fbf8a	-0.062438525
189	0x3d38ffe5	0.045165915
190	0x3c596516	0.01326873
191	0x3d97b947	0.07408386
192	0x3d96477e	0.07337855
193	0x3d88767c	0.06663224
194	0xbd531e14	-0.051542357
195	0x3cf83541	0.030298831
196	0xbd5bc03a	-0.05365012
197	0xbd181b7e	-0.037135594
198	0xbc37eb2b	-0.011225502
199	0x3d52909b	0.051407438
200	0xbca9b402	-0.020715717
201	0xbda12760	-0.07868838
202	0xbd095258	-0.033525795
203	0xbc97d9f5	-0.018536547
204	0xbc36cf8c	-0.0111578815
205	0x3d6ec878	0.05829665
206	0xbd832182	-0.064028755
207	0x3da987f3	0.082778834
208	0xbd99a532	-0.07502212
209	0x3d869edd	0.065732695
210	0x3d95ed89	0.07320697
211	0xbda7869c	-0.081799716
212	0x3d9b45a8	0.07581645
213	0xbd9344d5	-0.07190863
214	0xbd780d3c	-0.060559496
215	0xbdc7dbb7	-0.09758704
216	0xbd635540	-0.055501223
217	0xbd60894a	-0.05481843
218	0xbd9f8e54	-0.07790819
219	0xbd0ec9d0	-0.034860432
220	0xbd8ce9fe	-0.06880568
221	0x3d74f168	0.059800535
222	0x3d2b9a5e	0.041895263
223	0xbd8a053a	-0.06739278
224	0xbcae2dc3	-0.021262055
225	0xbdadbdcc	-0.084834665
226	0xbda34a6f	-0.079731815
227	0x3d65e5a5	0.05612721
228	0x3da2c323	0.079473756
229	0xbd98525e	-0.07437585
230	0xbd36577f	-0.044517037
231	0xbca652ad	-0.020303095
232	0xbc9539f7	-0.018216116
233	0xbd6f3b65	-0.058406252
234	0xbdb35678	-0.08756727
235	0xbc85385f	-0.016262231
236	0xbd9f52ff	-0.07779502
237	0xbdd22c1d	-0.1026232
238	0xbd6b69b5	-0.057473857
239	0xbd8de705	-0.06928829
240	0xbddedb0b	-0.10881623
241	0xbda8e46e	-0.082466945
242	0x3dd9fd3e	0.10644005
243	0x3db3ed25	0.08785466
244	0x3ce6a2bf	0.028153775
245	0xbd3af76b	-0.045646112
246	0xbdd4f6ce	-0.10398637
247	0xbe00c771	-0.12576081
248	0xbdd37bab	-0.10326322
249	0xbdfc128a	-0.123082235
250	0x3e005688	0.12533009
251	0x3dc432cc	0.09580001
252	0x3da95e5c	0.08269951
253	0x3dc004e5	0.093759336
254	0x3d678e39	0.05653212
255	0x3ddc83bd	0.107673146

u_bias.weight f4 [172, 1]
0	0xbc2a6477	-0.010399929
1	0xbc125ae7	-0.008932806
2	0xbd1de66e	-0.038549833
3	0xb9dba03e	-0.00041890325
4	0xbc48e202	-0.012260916
5	0xbca69a5f	-0.020337282
6	0xbcdb4104	-0.0267644
7	0xbd12fe10	-0.035886824
8	0xbbe379a5	-0.0069419914
9	0xbd2eee98	-0.04270801
10	0xbd1e06c9	-0.03858069
11	0xbd973253	-0.073826455
12	0x3d693fd0	0.056945622
13	0x3cba30e9	0.0227284
14	0xbc88808c	-0.016662858
15	0x3d655041	0.05598474
16	0x3ca46c1d	0.020071084
17	0xbd789db9	-0.06069729
18	0x3d424984	0.04743339
19	0xbcc37162	-0.023857776
20	0xbbfb9473	-0.0076776086
21	0xbc6e5667	-0.014546967
22	0xbd1639ae	-0.0366761
23	0x3c40ea32	0.0117745865
24	0xbd7119b6	-0.05886241
25	0x3d0f0fb3	0.03492708
26	0x3d43743c	0.04771827
27	0xbcec43fc	-0.028841011
28	0x3d4d3df0	0.050107896
29	0x3ccec403	0.02523995
30	0xbcf78a2e	-0.030217256
31	0xbd71cb2a	-0.059031643
32	0x3d8d6608	0.069042265
33	0x3d42d361	0.047564868
34	0xbc8a98be	-0.016918536
35	0xbd9c8607	-0.07642751
36	0xbc059baa	-0.008154789
37	0x3d1b3dac	0.03790061
38	0x3d1a5cf7	0.037686314
39	0x3c4a517b	0.012348528
40	0xbd041990	-0.03225094
41	0xbd2063d3	-0.0391577
42	0xbd395fcf	-0.045257386
43	0xbd266698	-0.040625185
44	0xbb11fd34	-0.0022276165
45	0x3db44d66	0.08803825
46	0xbd66bfc5	-0.05633523
47	0x3d988700	0.07447624
48	0x3dc3da5b	0.095631324
49	0xbc132072	-0.0089799035
50	0x3d697c9e	0.05700361
51	0xbd695c56	-0.056972824
52	0xbc9e28f2	-0.019306634
53	0xbc689125	-0.014194761
54	0xbd9f811e	-0.07788299
55	0x3d5362a0	0.051607728
56	0x3dbc7e13	0.09203734
57	0xbce047ac	-0.027377926
58	0x3d6e2620	0.058141828
59	0xbd94f4ed	-0.072732784
60	0xbd7295f1	-0.059225027
61	0x3d6b37e3	0.057426345
62	0x3cdc829c	0.026917748
63	0x3d9629ca	0.073321894
64	0x3cabd8e9	0.020977454
65	0xbd9a2b31	-0.07527769
66	0xbcf961b2	-0.030442093
67	0xbcb27bcc	-0.021787547
68	0x3db2272b	0.08698877
69	0xbd928819	-0.07154865
70	0x3a942b97	0.0011304495
71	0x3d43c4fc	0.04779528
72	0x3d954ed6	0.072904274
73	0xbd207ea5	-0.039183278
74	0x3cd68287	0.026185287
75	0x3b15449b	0.0022776488
76	0xbc862ec7	-0.016379727
77	0xbcdc1578	-0.026865706
78	0xbd66f7b5	-0.056388576
79	0x3d4f2f41	0.050582174
80	0x3d890b2d	0.06691585
81	0xbd7d07dc	-0.061775073
82	0xbd628669	-0.055303965
83	0xbba1b028	-0.0049343295
84	0xbd348f55	-0.044082005
85	0xbd7bd517	-0.061482515
86	0xbcf62f9a	-0.030051995
87	0x3c54b5fc	0.012982842
88	0x3c0ae330	0.008477017
89	0xbd4b8af0	-0.049693048
90	0xbc8ed699	-0.017436313
91	0x3c9dcc90	0.019262582
92	0x3abe807c	0.0014534141
93	0xbd1dfed2	-0.038573094
94	0xbd69a5c8	-0.057042867
95	0xbda1bbcc	-0.078971475
96	0xbc377c41	-0.011199058
97	0xbb8f2788	-0.004368726
98	0xbda0c810	-0.07850659
99	0x3ac7cd8d	0.0015243754
100	0x3d8a38fb	0.067491494
101	0xbd82df79	-0.0639028
102	0x3d4df916	0.050286375
103	0xbd9d2cba	-0.076745465
104	0xbd546beb	-0.05186073
105	0x3cf5cd08	0.030004993
106	0xbd434674	-0.04767461
107	0x3d441dfa	0.04788015
108	0xbd85ceda	-0.065335944
109	0x3d08b2ce	0.033373646
110	0xbd7ae4ce	-0.06125336
111	0x3dbd63a3	0.0924752
112	0x3bf0b665	0.007345962
113	0xbcd90eb1	-0.026496263
114	0xbd6d264e	-0.05789786
115	0xbd804912	-0.06263937
116	0xbbc46eb1	-0.0059946408
117	0x3d9541c0	0.072879314
118	0xbd3ddd0e	-0.046353392
119	0x3d5038b5	0.05083533
120	0x3d3fa598	0.046788782
121	0x3d9875ff	0.07444381
122	0x3d1615ad	0.036641765
123	0x3ce37d31	0.027769657
124	0xbd117afc	-0.035517678
125	0x3d7185ea	0.0589656
126	0x3d0dcca1	0.034618977
127	0xbd4f4ed8	-0.0506123
128	0x3d16540a	0.03670124
129	0x3d88c466	0.06678085
130	0x3d4b0d3a	0.04957316
131	0xbc5a293d	-0.013315496
132	0x3d9ba5b4	0.07599965
133	0x3d4fe2be	0.050753348
134	0xbd82239d	-0.06354449
135	0x3c075b02	0.008261444
136	0x3d1896af	0.037253078
137	0xbd583b6b	-0.05279104
138	0x3d9f00eb	0.07763847
139	0x3d4ad507	0.049519565
140	0xbd8882f2	-0.06665601
141	0xbd73b800	-0.059501648
142	0xbdaf123f	-0.08548402
143	0x3aa21f2f	0.0012368913
144	0xbd69861b	-0.05701266
145	0xbcd3072f	-0.025760261
146	0x3d3ff14f	0.04686099
147	0xbd8f034b	-0.0698305
148	0x3ca2dd19	0.019880818
149	0x3cf23675	0.029566983
150	0x3d426446	0.04745891
151	0x3c1690fc	0.00918984
152	0x3d486e13	0.0489331
153	0x3d4707fc	0.0485916
154	0xbd099318	-0.033587545
155	0xbc083e26	-0.008315599
156	0x3cb41c6d	0.02198621
157	0xbd33613a	-0.043793894
158	0xbc8afd8e	-0.016966607
159	0xbd94346f	-0.072365634
160	0x3d7540f5	0.0598764
161	0x39c9da2c	0.00038500258
162	0x3d594c6b	0.053051393
163	0xbd9976ae	-0.074933395
164	0x3d417f0b	0.0472403
165	0xbb48fa72	-0.0030666855
166	0xbd9d88e4	-0.076921254
167	0xbd7c3564	-0.061574355
168	0xbd5c307f	-0.053757187
169	0xbd8583aa	-0.065192536
170	0x3b34e140	0.002760008
171	0x3d0c11d0	0.034196675

i_bias.weight f4 [51, 1]
0	0x3b7d1348	0.003861623
1	0x3c87b67f	0.016566513
2	0xbb63ab96	-0.0034739724
3	0xbcaf8e20	-0.021430075
4	0xbd267b67	-0.04064503
5	0x3d393cb9	0.045223925
6	0x3b55e93b	0.0032640237
7	0xbd8f7487	-0.07004648
8	0x3d1e97c1	0.038718943
9	0xbda05e64	-0.078305036
10	0x3b8c6c69	0.0042853844
11	0x3d7a341a	0.061084844
12	0xbdb2efc2	-0.087371364
13	0xbd5be8ec	-0.05368893
14	0x3b571442	0.003281847
15	0xbd87c58b	-0.06629475
16	0x3dbdce6a	0.09267886
17	0xbcd55022	-0.026039187
18	0x3d5202c7	0.05127218
19	0x3c987513	0.018610513
20	0xbc03de2e	-0.008048577
21	0x3c08468b	0.0083176
22	0xbcbda6b6	-0.023150783
23	0x3d84fd1f	0.064935915
24	0xbb1f4e94	-0.002430831
25	0x3d5711c7	0.05250719
26	0x3d0be869	0.03415719
27	0xbcc41bd3	-0.023939049
28	0xbd193f97	-0.03741416
29	0x3d941c31	0.072319396
30	0x3d4c5fce	0.049896054
31	0x3d168038	0.036743373
32	0xbda4bfd4	-0.08044401
33	0x3dbefa96	0.09325139
34	0x3d37ffdc	0.04492174
35	0xbdb8d2dc	-0.09024593
36	0xbd420d1e	-0.04737579
37	0xbda9b6fd	-0.08286855
38	0x3cad7287	0.021172775
39	0xbdc96818	-0.098343074
40	0x3c855c99	0.016279506
41	0x3cf118de	0.029430803
42	0x3c0f230d	0.008736384
43	0xbc766182	-0.015037896
44	0x3c4efc54	0.012633402
45	0xbd496e57	-0.049177494
46	0xbd54d388	-0.051959544
47	0xbd5da316	-0.05411061
48	0x3d6eb147	0.058274534
49	0x3c8ab6f0	0.016932935
50	0xbd6e3477	-0.058155503
